coef/old/red_model_beta.npy (npy, 448 bytes, 1 tensors)

array f8 [40]
00000000: 867c c510 744c b03f 4341 9e42 f19a 8f3f
00000010: 5022 0c82 6101 713f 921b d861 6ca6 883f
00000020: 0553 c970 0f9a 993f e682 87db 1e86 793f
00000030: d1dd ec98 9bcb 80bf 72f8 3659 8a48 7bbf
00000040: 5e97 55b2 983d 76bf bce3 35a2 6ce1 703f
00000050: bc09 d617 f82c 853f 8036 ba38 b0af 7ebf
00000060: 3e95 74d3 a750 8e3f ec00 59c8 7b24 763f
00000070: 9da8 e306 5413 883f d982 444b 54c2 923f
00000080: c32b 86bb add3 85bf c68f 7116 780b 853f
00000090: f7bd 88d9 3bef 72bf 5a52 8657 7ba6 7e3f
000000a0: d240 dd2c 4626 8fbf f30a f444 d159 8fbf
000000b0: a9d8 d545 8888 833f c6aa 7d0a dba3 89bf
000000c0: 7a2d ba03 9823 98bf d4d6 b05a bbb9 87bf
000000d0: 8cce f88e 8972 97bf 5ed6 79fc d217 7a3f
000000e0: 9cfa ed57 c9a7 873f 27a7 e095 bb5e 933f
000000f0: e6db 8074 c1dd 73bf 8631 fb09 8778 783f
00000100: d8ab 595c c776 903f 322a e53c 8195 85bf
00000110: 35fb 87b2 12de 743f 8b68 30b2 8409 943f
00000120: f467 6eca 3d52 7b3f 55f1 2063 f221 74bf
00000130: 9671 2b40 15f6 763f f13e 9e50 8b19 8b3f
0.0636665860124471 0.015432247968221296 0.004151707544914077 0.012036177383391498 0.025001755961358025 0.006231422936679753 -0.00820085106316429 -0.006660976814087604
-0.005429836722532359 0.0041212314130171755 0.010339678027553194 -0.007491768231955853 0.014802275791746863 0.0054058871515396505 0.011755615673298353 0.018319432348223728
-0.010657651219636471 0.0102757818078273 -0.004622682369287193 0.007482988170882077 -0.015209720844410777 -0.015308031956469991 0.009537758475499496 -0.012519561059624162
-0.023573279597753218 -0.011584724145090965 -0.02289786276942478 0.006370376744248311 0.011550496097467992 0.01891606428413364 -0.004850154575300336 0.005974318977404974
0.016078104983915015 -0.010539064093468917 0.005094597851438111 0.019567559600638645 0.006670228357416253 -0.0049151867152058175 0.005605776796724268 0.013232315442820193
