Libraries/coef/red_model_beta.npy (npy, 744 bytes, 1 tensors)

array f8 [83]
0	0x3fae581f373dd894	0.05926606702171103
1	0x3f8b720526404f34	0.013401069860300298
2	0x3f8688b40fd94c49	0.011002928479831324
3	0x3f92bb1b004695ee	0.01829187573607343
4	0x3f9e0bde65b1ea75	0.02934215064713404
5	0x3f55586a474daa08	0.0013028180958040165
6	0x3f518183257fe5d0	0.0010684757926341278
7	0x3f59cbbd8752cf18	0.0015744543900781446
8	0x3f5f8ea11bfa5e32	0.0019260953267003053
9	0xbf6aeecbbbe31c44	-0.0032876948526765776
10	0xbf67203ae5cabc52	-0.002822985681937542
11	0xbf52ac9ed6dfa10a	-0.0011397887387776828
12	0xbf4f044edc67bf5c	-0.0009465584815284522
13	0x3f4fe097d488454a	0.0009728185041827733
14	0x3f60cd2a5b3f2376	0.002050955512434556
15	0xbf6db58195ffa362	-0.003626587960742376
16	0x3f7a4061e4485551	0.006409056081357293
17	0xbf5998d7f7c033b6	-0.0015623196659390998
18	0x3f61e041ae8b9067	0.0021821291778554744
19	0x3f6dcf69ce88340c	0.0036389414347071155
20	0xbf58961a8f1d6a23	-0.0015006312719011503
21	0xbf70364526e42770	-0.0039580060240583664
22	0x3f6698b16362a690	0.0027583565343619124
23	0x3f7b0ae7e195da38	0.006602197442922057
24	0x3f51072862f2ceb7	0.0010393041991791205
25	0x3f592745a9bcf6ae	0.001535242109596362
26	0x3f6aef8e83ea0038	0.0032880576612228894
27	0xbf81588a2c208532	-0.008469657394075545
28	0x3f7248ef879c8d16	0.004464088118570039
29	0x3f738ea1498b3014	0.004774694469869462
30	0x3f611fa905ab2914	0.002090292092678978
31	0x3f53d0207344addd	0.001209289254869065
32	0x3f6a45288fa7f08a	0.0032068054399570544
33	0x3f6d3289883dea72	0.0035641370940855894
34	0x3f8017ed3613f43c	0.007858136380031515
35	0xbf630025c92dd602	-0.0023194063191407386
36	0xbf7c574f9d9453de	-0.006919203756543061
37	0xbf87097e887948a9	-0.011248577632759842
38	0x3f5335896a5b51be	0.001172432131558584
39	0x3f79692dbf9e7da9	0.006203821854711058
40	0xbf6141ae02733522	-0.00210651384586548
41	0xbf6fb1a968b61b4a	-0.003868895413407546
42	0xbf6ead7c4f40d0c9	-0.003744833748010466
43	0x3f6282118890e964	0.0022592871141828164
44	0x3f8061443ee08800	0.00799802128682714
45	0xbf6009b09cff5470	-0.001957745502276391
46	0xbf773e1707f135c5	-0.005674447979868662
47	0xbf705b6e0fd209c1	-0.003993444374943812
48	0x3f4c175bcbbe5df0	0.0008572767469443004
49	0xbf61ab0aadd81ac2	-0.002156754357886954
50	0x3f62602e159f9b2c	0.002243127831195754
51	0xbf5fbc77b0d852e0	-0.0019370240073658881
52	0x3f75fce89ed40b90	0.0053681456313395964
53	0x3f844620638ee122	0.009899380720398702
54	0x3f564e0c14416d5a	0.0013613813362301692
55	0x3f71b70fd7430d4e	0.004324972036730058
56	0x3f6a58ad5ed65920	0.0032161127225648484
57	0x3f672f640f8eda55	0.0028302149116499566
58	0x3f78966df827bc92	0.006002835815237211
59	0x3f81a7d84b4ff1da	0.008620919988964571
60	0x3f67965cf5f59d51	0.002879315914174598
61	0x3f7910df15732dc7	0.006119605465936435
62	0x3f7d54c5c66cef72	0.007160923537238394
63	0x3f7231c90fa6d8ce	0.004442010302616773
64	0x3f8070d673acaaca	0.008027720837693226
65	0x3f6568cc118bb35a	0.002613447734225377
66	0x3f774af3b19d9596	0.005686714104603216
67	0x3f82d906bbf167e6	0.009203007326664858
68	0x3f7280df174c083e	0.004517432641252537
69	0xbf605ec4261416d2	-0.0019983130483777
70	0xbf50ea49420513c4	-0.0010324206742364653
71	0x3f5f2a9e7328af25	0.0019022509919847743
72	0xbf5a2d4d63014b0e	-0.0015977149705760948
73	0x3f722bb3c63a6602	0.004436208957167677
74	0x3f6a63d760747eec	0.0032214361741721344
75	0x3f5ddac010f6e412	0.0018221736571446584
76	0x3f60de1930af3080	0.0020590297694749737
77	0xbf60152e49e6d2db	-0.001963224799704439
78	0x3f6d5f77287fbab4	0.0035855605419706452
79	0xbf60b4756b7ff346	-0.002039174400123053
80	0xbf59a3a389f384af	-0.0015648934420869167
81	0xbf59b18c317c6bb1	-0.0015682095599405083
82	0x3f5fbd1b4e9a10cf	0.0019371763868614616
